training result/CNN_4block/trained_model.pth (torch, 28484 bytes, 5 tensors)

conv_layers.0.weight f4 [32, 1, 3]
000000 c1 eb 3f bf 61 c6 4f bf 30 b1 0d bf 84 be 74 3e
       -0.74969107 -0.8116208 -0.5534849 0.23900801
000010 bd 75 58 3f fc 20 b3 bf 29 4c 51 bf 6a fb 12 bf
       0.84554654 -1.3994441 -0.81756836 -0.5741488
000020 68 4b bd 3f e9 1b 97 3f 35 04 60 3f 87 a3 93 bf
       1.4788637 1.1805393 0.8750642 -1.153428
000030 c8 52 a2 3f 73 de 82 3f fb 8c 4b bf a5 d5 e1 bd
       1.2681513 1.0224136 -0.79511994 -0.110270776
000040 9c 01 7d 3f 15 c3 9a 3f 04 c5 83 3f 17 d7 5f 3f
       0.9883058 1.2090784 1.0294499 0.87437576
000050 f9 06 82 3e ba ed 33 bf ab 45 40 bf da 03 15 bf
       0.25395945 -0.70284617 -0.75106305 -0.58209
000060 d6 ab 18 bf dc 81 ea bd f7 6a df 3f 4e 90 8e 3f
       -0.596372 -0.1145055 1.7454518 1.1137788
000070 ab 65 9a 3f 5a 3c 06 bf 56 6d fd 3e d5 20 d5 3d
       1.2062277 -0.5243584 0.4949748 0.10406653
000080 13 f7 8c 3d a2 f5 f5 be 3f 2b 15 bf ae 5a 89 bf
       0.06883063 -0.48038965 -0.58269113 -1.0730798
000090 05 32 4a 3f 38 d5 6a 3f 3a a9 54 3f b7 1d 39 40
       0.78982574 0.91731596 0.8307072 2.8924387
0000a0 b8 05 5b bf 84 c5 63 c0 a8 42 78 3f 6b 80 23 3e
       -0.855556 -3.5589304 0.9697671 0.15966956
0000b0 23 e4 61 3e 21 c9 ae 3f 17 2b 3e 3f 50 93 a6 3f
       0.22059684 1.365513 0.742845 1.3013706
0000c0 d4 b0 cd bd 67 da e7 be 7d c2 ed 3e de 24 31 bf
       -0.10043493 -0.45283815 0.46437445 -0.6919688
0000d0 36 bc a6 bf 5d 9f 71 bf 22 8d c5 be 42 9d 5b 3f
       -1.3026187 -0.94383794 -0.38584238 0.8578683
0000e0 a3 c2 25 3f 02 bc 9d 3f 24 9f 3f 3f 86 95 99 bf
       0.6475012 1.2323 0.74852204 -1.1998756
0000f0 ac 37 8f 3f 7d e5 d9 be 5a 5b 7b 3f b0 84 e1 3e
       1.1188865 -0.42557898 0.98186266 0.44046545
000100 10 60 3b bf ef 3a 9b 3f a2 36 37 bf 74 0a 0a bd
       -0.73193455 1.212736 -0.7156774 -0.033701375
000110 f2 ba 85 bf 19 18 51 bf 58 e6 80 3f e8 b9 ed bf
       -1.0447676 -0.81677395 1.0070295 -1.8572359
000120 e0 59 27 bf 4f fa 9b bf 6f 67 64 bf 69 3b ef 3e
       -0.65371513 -1.2185763 -0.8922033 0.46725014
000130 86 f2 1c be e9 a2 f2 3e 2b 5e 4c bf 00 b0 f9 be
       -0.1532689 0.47389916 -0.7983119 -0.4876709
000140 bc 2e ae 3f 99 57 71 3f 91 21 c0 3e fc eb 6b bf
       1.3608012 0.9427429 0.3752561 -0.9215696
000150 17 86 d4 3f 84 70 59 bf c0 19 a0 3f 0b 1a 52 bf
       1.6603421 -0.8493731 1.2507858 -0.8207099
000160 84 41 ea 3e 32 6e 85 bf 3b e5 c6 be f3 c0 eb be
       0.4575311 -1.0424254 -0.38846764 -0.46045646
000170 96 4d c3 be 05 44 8f 3f 87 df 17 3f b3 bb 83 3f
       -0.3814513 1.1192633 0.5932545 1.0291656

conv_layers.0.bias f4 [32]
000000 b3 93 0b 3f 23 19 90 be 6a a2 33 bd 77 4f 51 be
       0.54522246 -0.28144178 -0.043856062 -0.2044047
000010 15 a2 8d be 87 0c 57 bf 02 a0 ef bd 75 5d 04 3f
       -0.2766272 -0.8400349 -0.11700441 0.51705104
000020 64 2f 3e be bb cd 76 3e e9 49 28 3e b7 84 31 be
       -0.18572766 0.24101917 0.16434444 -0.17335783
000030 fd c5 86 3e d8 af 9f be 83 cb 93 3e 6e 0f 0a be
       0.26322928 -0.31188846 0.28866205 -0.13482448
000040 d7 a7 c5 3e 3d 47 f4 bd e6 90 5f bf fd a6 de bc
       0.38604614 -0.1192765 -0.8733047 -0.027179236
000050 98 ca 88 3e 4a cf ad be 64 6e 0b bf f5 45 84 bf
       0.26717067 -0.33947212 -0.5446532 -1.0333849
000060 dd ef e6 bd c8 50 09 3e 96 d2 61 bd b7 a8 13 bf
       -0.11276219 0.13409722 -0.05513247 -0.57679313
000070 9b 0c ac bc 86 db e0 be 3a d7 9b 3e f6 d5 f3 bd
       -0.021002105 -0.43917483 0.30437642 -0.11906044

conv_layers.3.weight f4 [64, 32, 3]
000000 a9 a5 87 3e ed 14 1b 3e f2 83 37 3e b3 e3 a6 3f
       0.26493576 0.15144701 0.17921427 1.3038238
000010 3b 6f b3 3f e6 58 98 3f 4a 37 a5 be 9e 67 e5 bd
       1.401832 1.190213 -0.32268745 -0.11201404
000020 85 bf b4 be 96 b3 01 bf 24 86 68 be e3 75 5d bc
       -0.35302368 -0.5066465 -0.2270742 -0.013516876
000030 49 cd ec be 8d 60 7c be e1 2b ce bd b9 a5 4d c0
       -0.4625037 -0.24646206 -0.10066963 -3.21324
000040 dc 45 90 c0 86 38 17 c0 77 36 2b bf 36 4c fb be
       -4.5085278 -2.362825 -0.6687998 -0.49081582
000050 d0 eb 1c be 31 e3 12 3e 14 8f b3 3d f2 5b 68 3e
       -0.1532433 0.14344479 0.08767524 0.22691324
000060 9e 99 28 be b7 e6 92 bd 89 ae 7e be 2e 7d a7 bc
       -0.1646485 -0.071729116 -0.24871267 -0.020445433
000070 13 40 37 3e 47 73 16 3e 0a 00 cd 3d c3 dd 43 3e
       0.17895536 0.14692412 0.10009773 0.19127564
000080 dc 4c 5f 3e b3 75 62 bf 3b f0 88 bf ad 43 80 bf
       0.21806663 -0.88460845 -1.0698313 -1.0020653
000090 c3 39 61 3e 1d 35 b8 3e 01 6c 75 3e 7f f5 ff bc
       0.2199469 0.35978022 0.23966981 -0.031244991
0000a0 6f 04 2f bc 45 84 31 bd b1 69 63 3e 0c 2d 34 3e
       -0.010682209 -0.043339033 0.22208287 0.17595309
0000b0 31 9d 26 3e 9a 5f e6 be 55 e6 a9 be 6d 10 a3 be
       0.16270901 -0.44994813 -0.33183542 -0.3184847
0000c0 77 14 86 3d 20 e0 13 3e fc ac 08 3e 75 8f 54 bf
       0.06546872 0.14440966 0.13347238 -0.830314
0000d0 0e e0 69 bf a5 e0 44 bf b5 11 fe 3f 34 25 64 c0
       -0.91357505 -0.7690528 1.9849154 -3.5647707
0000e0 a7 f2 5d 40 cc 9d e5 be a8 12 55 be de 43 0f bd
       3.4679353 -0.44846952 -0.20807898 -0.034976833
0000f0 0d bc 23 3e cb 49 bd 3e 3b 68 75 3e b0 76 04 bf
       0.15989704 0.36970362 0.23965542 -0.517436
000100 29 73 db be 18 42 6c bf d2 1f a4 bf 9d 92 6f bf
       -0.42861298 -0.9228835 -1.2822211 -0.9358309
000110 2f f3 a6 bf ce 2e dc 3e b6 62 02 3f 6f 16 c8 be
       -1.3042964 0.4300446 0.5093187 -0.39079615
000120 18 8e 62 bf 5c f7 6e bf 43 e7 54 bf 0e cc dc 3d
       -0.8849807 -0.9334619 -0.8316538 0.10781108
000130 33 28 85 3e 4d c6 7c 3e bd b7 c1 bb fc 93 dd bd
       0.26007232 0.2468502 -0.005911796 -0.108192414
000140 e3 b1 9a bd ce 10 f1 3f 67 63 f3 3f 3e 85 0f 40
       -0.075534604 1.8833253 1.901471 2.2425075
000150 a5 57 93 3e 9d 78 c5 3e c5 8a c0 3e 17 9c 1c bf
       0.28777805 0.38568583 0.37605873 -0.61175674
000160 2d fc 12 bf da 3e b9 bf 22 7d 46 3e 66 c2 00 3e
       -0.5741604 -1.4472306 0.19383672 0.12574157
000170 e7 c5 27 3e 68 33 19 be bf a8 14 be f9 3f 1c be
       0.16384088 -0.14961016 -0.14517497 -0.15258779
000180 82 48 e7 bd f2 69 24 be b1 4d 0d be 5b fd 94 bf
       -0.11293127 -0.1605604 -0.13799168 -1.1639818
000190 ea 28 ce bf 74 d6 75 bf 6a 3b da 3e 6c 85 aa 3e
       -1.6106236 -0.96030354 0.42623454 0.33304918
0001a0 0b 9e 00 3f a4 89 04 3f 5a 5b e0 3e 99 82 09 3f
       0.50241154 0.5177252 0.43819696 0.537149
0001b0 8f 6f 0c 3f 01 74 01 3f cb 3e 2b 3f 0a 05 46 40
       0.54857725 0.5056763 0.6689269 3.0940576
0001c0 dc c5 47 40 53 70 3e 40 55 1a 70 3f b5 b1 50 3f
       3.1214514 2.9756057 0.9379018 0.8152116
0001d0 26 97 73 3f 33 48 2d bd df c9 86 bb 53 45 cd bd
       0.9515251 -0.042305183 -0.0041134204 -0.10022988
0001e0 65 15 18 3f c3 65 2a 3f 76 ba 11 3f bf 4d 2f 3d
       0.59407645 0.66561526 0.5692514 0.042798754
0001f0 ff af 0f 3e 44 91 f3 3d 61 63 24 bd a9 7a 29 3b
       0.14031981 0.118929416 -0.040133838 0.0025860465
000200 fc 82 59 3d 38 9f ca 3e d4 71 ad 3e f9 80 14 3f
       0.053103432 0.395746 0.33875906 0.58009297
000210 16 63 48 3c cd 01 28 bd 96 20 86 3d d4 29 eb 3d
       0.012230655 -0.041017342 0.06549184 0.114825875
000220 b3 26 3b 3c ee c1 09 3e 3b f3 f2 3d 8a eb 10 bd
       0.011422801 0.13452885 0.11862799 -0.035380878
000230 82 ce 80 3d e1 9e 2d 3f 47 f4 09 3f 29 70 35 3f
       0.06289388 0.67820555 0.5388836 0.7087427
000240 ec 9c d3 bd d4 de 37 bb 1d fa 1f bd 60 24 d2 3e
       -0.10332665 -0.00280564 -0.039056886 0.41043377
000250 b1 af dc 3e 96 9f db 3e 08 58 24 c0 c2 b5 20 c0
       0.43102792 0.42895192 -2.567873 -2.5110936
000260 ae 85 1c c0 02 fd 01 3f 59 b0 0a 3f 3b d7 25 3f
       -2.4456592 0.50776684 0.54175335 0.6478154
000270 f6 06 d6 3d 28 18 05 bd 71 aa cd bc f2 5c 86 3f
       0.104505464 -0.03249374 -0.025105687 1.0497115
000280 38 bd 82 3f d2 bc 93 3f 40 6f 67 bf 0f cf 81 c0
       1.0213995 1.1541998 -0.9040413 -4.0565257
000290 eb 75 57 c0 37 09 77 be 1c 07 a8 c0 cf b4 14 c0
       -3.3665721 -0.24124609 -5.250868 -2.3235357
0002a0 ab ba 04 3f 49 c9 c8 3e 13 46 d8 3e 23 6b f6 bc
       0.5184733 0.39216068 0.42240962 -0.030080384
0002b0 16 94 88 bd 7e 82 fe 3d ec 93 9a 3e eb 2e 01 3e
       -0.0666887 0.12427233 0.3019098 0.12615554
0002c0 d7 da 8e 3e c1 07 93 bf ad 5d 8a bf 74 30 97 bf
       0.27901337 -1.1486741 -1.0809838 -1.1811662
0002d0 f1 81 99 bd cc 3d 2c bd 13 4a 87 bd 56 cd bc be
       -0.074954875 -0.04205112 -0.066059254 -0.3687541
0002e0 b5 df 1b c0 a1 e6 8f bf 00 4b 39 3c d0 c9 71 bd
       -2.435529 -1.1242257 0.011309385 -0.059030354
0002f0 d3 e9 12 be 37 67 e9 3e d1 a9 01 3f 63 3f 1d 3f
       -0.1434701 0.4558656 0.50649744 0.61424845
000300 66 48 4b bd 67 d5 0e be 00 9e d9 bd d7 f1 88 bf
       -0.04962959 -0.13948594 -0.10625839 -1.0698804
000310 b7 b7 b9 bf c5 46 9a bf ae 80 04 3f 3f 59 03 3f
       -1.450919 -1.2052847 0.5175885 0.51308054
000320 3f b1 15 3f c5 ae 10 3f 8f bb 1d 3f fa 14 1e 3f
       0.5847358 0.5651668 0.61614317 0.6175076
000330 c2 1f 07 3f 13 6d 0c 3f ea d8 19 3f 0c b8 46 40
       0.52782834 0.54853934 0.6009661 3.1049833
000340 ae cf 40 40 11 45 4a 40 a9 1d 76 3f 5a d2 6d 3f
       3.0126758 3.1604655 0.9613901 0.92899096
000350 ca 06 71 3f fc 5b d3 bd 27 ff 3b be 01 be 07 be
       0.94150984 -0.10320279 -0.18359052 -0.13256074
000360 df a8 44 3f ba e8 14 3f 3e 63 1e 3f 23 c5 43 3e
       0.76820177 0.5816761 0.6187018 0.1911817
000370 54 c4 28 3e e8 33 05 3e be 73 b5 bd f0 01 28 bd
       0.16481143 0.13008082 -0.08859967 -0.041017473
000380 aa 04 ed 3d d5 ff 06 3f 78 dc de 3e fb 52 11 3f
       0.11573155 0.5273412 0.4352758 0.56767243
000390 c7 1f f4 bc 93 d1 8d 3d 0c af 07 3d fd 21 a0 3b
       -0.029800309 0.06924739 0.033125922 0.004886864
0003a0 f2 1d b7 3d ec 49 35 3d e8 99 6b 3c 7c 83 04 bd
       0.089412585 0.04425995 0.014379956 -0.032351956
0003b0 84 10 13 3d ad 1d 1c 3f a1 80 1a 3f 58 d5 2c 3f
       0.035904422 0.6098278 0.6035252 0.67513037
0003c0 3f 9e 2f 3c e7 62 22 bc d0 88 b6 3d d6 50 e7 3e
       0.010718881 -0.0099112755 0.08912814 0.4517886
0003d0 9f be a9 3e 88 f2 e0 3e 7b 90 21 c0 b6 46 1b c0
       0.33153245 0.43935037 -2.5244434 -2.4261909
0003e0 ae cc 21 c0 e6 0a f8 3e 48 5b 20 3f d4 f4 ed 3e
       -2.5281177 0.48445815 0.62639284 0.46475852
0003f0 ca 00 e6 3d ab cb 3e 3d 61 6d d8 3b f1 3c 96 3f
       0.11230619 0.04658095 0.006604836 1.1737348

conv_layers.3.bias f4 [64]
000000 05 53 86 3e d8 ed 5e bd 79 66 01 be 5a 6b ea bd
       0.26235214 -0.054426044 -0.12636746 -0.11446257
000010 c0 32 e6 bd 83 53 89 bb f1 31 2d bd e3 d4 94 3c
       -0.112401485 -0.0041908636 -0.042283956 0.018167919
000020 ba 44 c5 bd 9b c0 1c be 42 71 11 be a9 05 41 3e
       -0.09632249 -0.15307848 -0.1420336 0.18849815
000030 47 1a e6 bc 1d 4c 35 3e 77 5b 0f 3e 4d 27 76 bc
       -0.028088702 0.17704816 0.13999735 -0.0150240185
000040 5d 1f 5b 3e 23 c5 4f be 0b 25 90 3e 43 c5 b3 bc
       0.21398683 -0.20290045 0.28153262 -0.021944648
000050 d8 2b a6 3c 56 25 e1 3b 18 67 5f 3e de 4d de bd
       0.020284578 0.006870906 0.21816671 -0.10854696
000060 f3 7f 8a be 26 d8 87 bd c5 2c 0a be 21 bd 67 be
       -0.27050743 -0.06633024 -0.1349364 -0.2263074
000070 b3 6f e7 bd 54 8e 86 3e e4 39 13 bd 37 27 1a 3e
       -0.11300602 0.26280463 -0.03594388 0.15054022
000080 77 76 f9 3d b4 32 df 3c 9f 47 de bd 9e ec 77 3e
       0.121807985 0.027245857 -0.108535044 0.24211356
000090 60 2c 9f 3e c7 e3 ea bd 13 a1 a0 bd 68 d7 1c bd
       0.31088543 -0.11469226 -0.078432225 -0.038291365
0000a0 b5 e4 2b be c5 ba 62 3e 58 b0 f4 bc 4e f8 a2 bd
       -0.16786464 0.2214156 -0.029869244 -0.079575166
0000b0 b9 51 9a 3e ac a5 2a 3d ff b6 a5 bd f9 9f 6b be
       0.30140474 0.041661903 -0.08091544 -0.23010243
0000c0 2f 89 18 bd a7 8a 80 3e 2f 1f 09 3e b6 93 8b 3e
       -0.037240203 0.25105783 0.13390802 0.27261132
0000d0 d3 db 7f bc 8b ae 29 3e a5 8d c4 3d 20 10 34 be
       -0.015616375 0.16570489 0.09597329 -0.17584276
0000e0 a7 0b f3 bb 57 23 38 3e 0e 20 8b 3e 40 91 d0 bd
       -0.0074171606 0.17982231 0.27172893 -0.10183954
0000f0 27 24 8a 3e 9a d8 35 be ee c4 b4 bc e1 6c ee bd
       0.26980707 -0.17758408 -0.02206656 -0.11641861

classifier.weight f4 [1, 64]
000000 d6 73 3d bf 25 b1 43 3f 87 b8 4a 3f 12 db e0 3d
       -0.74004877 0.76442176 0.79187816 0.10979284
000010 9a 1d b3 bd 31 37 56 3f 64 1a 59 3f a3 6f 48 3f
       -0.087458804 0.83677965 0.84805894 0.78295344
000020 60 75 32 3f ca 12 39 3f f2 3d b7 3d 63 c1 4a bf
       0.6971035 0.72294295 0.08947362 -0.79201335
000030 f4 29 73 c0 f8 94 0d bf ee 16 8c bf 62 5e 3c 3f
       -3.7994356 -0.55305433 -1.0944498 0.73581517
000040 dc 0b 41 bf e4 15 40 c0 7f a8 4b bf 3a 5b 28 3f
       -0.7540872 -3.001336 -0.7955398 0.657642
000050 17 d4 14 3f b0 db 8a c0 6b 28 48 bf b6 29 4e 3f
       0.58136123 -4.3393173 -0.7818667 0.80532396
000060 6c 67 8d c0 e3 d7 a2 c0 ec 69 3d 3f 5a 95 67 c0
       -4.4188747 -5.0888534 0.7398975 -3.6184907
000070 6e 76 96 c0 81 69 31 bf 24 92 2b 3f b3 8c 48 bf
       -4.7019567 -0.6930161 0.6701987 -0.7833969
000080 b0 01 91 c0 2a 87 71 c0 ad b5 53 3f 6e b9 36 bf
       -4.531456 -3.7738748 0.8269909 -0.71376693
000090 44 8e 4e bf 99 00 aa 3f 87 c7 d7 ba ea 25 53 3f
       -0.8068583 1.3281432 -0.0016462662 0.8247973
0000a0 53 76 2c 3f 5c e8 86 c0 94 b8 29 3f e7 34 25 3d
       0.6736805 -4.215864 0.6629727 0.040333655
0000b0 4b e4 1e bf 37 e5 8a c0 ce a5 94 c0 eb ef 90 c0
       -0.620671 -4.3404803 -4.64524 -4.529287
0000c0 43 bb 91 c0 59 f8 5a bf bf 33 41 bf a5 d9 24 bf
       -4.554109 -0.855352 -0.75469583 -0.643946
0000d0 37 b8 31 3f 7c ca 3b bf 58 6b 29 bf 2a 6c 2e 3f
       0.69421715 -0.7335584 -0.6617942 0.68133795
0000e0 83 35 8b 3c 44 7c 3f bf 29 16 21 bf b8 80 41 3f
       0.01699329 -0.7479899 -0.6292444 0.75587034
0000f0 c4 b6 2d bf 82 da 82 c0 b4 85 36 3f 8d 74 47 3f
       -0.67857003 -4.0891733 0.71297765 0.7791222
