training result/CNN/trained_model.pth (torch, 28484 bytes, 5 tensors)

conv_layers.0.weight f4 [32, 1, 3]
000000 af d1 26 bf d8 93 71 be 50 d0 27 bf 8a fd c8 3f
       -0.651637 -0.23591554 -0.65552235 1.5702374
000010 1b db 56 be 33 80 97 3f 03 9f bb 3d 00 0d 0f 3d
       -0.2098202 1.1835998 0.091611885 0.034924507
000020 fd 58 a7 3e f6 8a b6 3e e0 90 d2 3e 7c 7b a2 3e
       0.3268508 0.35652894 0.41126156 0.31734836
000030 3d 0f 94 3c f1 b6 ba be 5e 67 46 3f 04 f7 9a 3f
       0.018073672 -0.36467698 0.77501476 1.2106633
000040 1a ee a0 3e 35 5f b8 3d 4a 42 57 bc 3d b3 03 be
       0.31431657 0.09002534 -0.013138363 -0.12861343
000050 5d bf 93 bd 4c d4 09 bf c8 a0 2f bf d2 60 dc be
       -0.07214234 -0.53839564 -0.6860471 -0.43042618
000060 e8 39 2c bf 5c 2c 8b bf c4 f2 74 bf 55 dc e7 3f
       -0.6727586 -1.0872912 -0.9568293 1.8114115
000070 3e cf ee 3d 48 dd 2f c0 bd c1 19 bf 4d e7 24 be
       0.11660622 -2.747881 -0.60061246 -0.16103859
000080 9f a3 32 bf 90 1a cc 3e 87 24 7f bf ed 88 9f 3e
       -0.69780916 0.39864016 -0.9966511 0.31159154
000090 61 68 10 3f 7c 85 d0 bd bd 6c 37 3f 29 5c 0a 3f
       0.5640927 -0.1018171 0.71650296 0.54046875
0000a0 cf 46 5d 3f e5 99 a4 be 0a a6 77 3f b0 62 4a 3f
       0.8643617 -0.32148662 0.9673773 0.79056835
0000b0 b7 56 34 3e 68 a8 40 bd b3 d0 81 bd c5 a7 43 bd
       0.17611204 -0.047035605 -0.06338634 -0.04776742
0000c0 e7 8a ab 3f 75 45 bb be 84 aa 97 3f f4 6f 88 3f
       1.3401765 -0.3657643 1.1848912 1.0659165
0000d0 7f 6c 5a 3f 7c b4 2e 3e 9d 03 26 3f 9f ea 54 3f
       0.853218 0.17061037 0.64849263 0.83170503
0000e0 02 93 55 3f d5 d4 23 3f ca 0f ab 3d 6e da 10 3f
       0.8342744 0.6399663 0.08352621 0.565833
0000f0 3b e6 75 3e 13 ad 2c 3f 42 b9 71 bf dd 19 cd 3e
       0.24013607 0.6745159 -0.94423306 0.40058795
000100 45 6f 7c bf a1 e4 a7 3e 31 21 64 3f 21 7d 16 3f
       -0.98607284 0.32791618 0.89113146 0.5878468
000110 3a 43 55 3f f2 9d 05 3f 8e 55 23 be 5f da d7 be
       0.83305705 0.5219413 -0.15950605 -0.4215879
000120 ea dd 67 3f ed 6b 3f 3f 7b d0 18 bf ba ad 49 bf
       0.9057299 0.74774057 -0.59693116 -0.7878071
000130 5a 26 d6 be 80 d2 a0 3f b8 93 94 3e 1d 7d 30 be
       -0.41826135 1.256424 0.2901895 -0.17235227
000140 21 ec ca bd 02 a2 18 3f 3b 66 19 be 55 88 f8 3e
       -0.09908319 0.59622204 -0.14980404 0.48541513
000150 2f a5 0c bf 9c be 77 bf 95 4c 4e 3f 07 e5 13 bf
       -0.5493955 -0.9677522 0.80585605 -0.57771343
000160 eb 0e cc 3e 6e 8e 9d be 63 f5 5c 3d b5 57 e5 3e
       0.39855132 -0.30772728 0.053944957 0.44793478
000170 a4 6c fb be d5 1f 87 bd af fd 72 be ac 7a 05 be
       -0.49106324 -0.06597868 -0.23729585 -0.13035077

conv_layers.0.bias f4 [32]
000000 73 0b da be 90 98 10 be 01 58 17 3f d6 23 1c 3f
       -0.4258686 -0.14120698 0.5911866 0.6099218
000010 a2 8d 60 be 50 09 47 be d3 ca 75 3c cb 15 1a bf
       -0.21929029 -0.19437146 0.01500197 -0.60189503
000020 26 85 f7 bd 02 da a9 3e 43 af d2 be eb 25 97 be
       -0.12085943 0.3317414 -0.4114934 -0.29521117
000030 ff 0f 6a bf 72 08 cc bd 59 f9 e6 bd 4b e4 55 3e
       -0.9143066 -0.09962548 -0.11278028 0.20887868
000040 fa 6f 6a be a8 8d 06 be a8 c4 5c 3e d4 4e ea 3d
       -0.22894278 -0.13139975 0.21559393 0.114408165
000050 f5 14 36 be a2 be 9a be 08 2c bb bd 32 ce 46 3e
       -0.17781432 -0.30223566 -0.09139258 0.19414595
000060 ed fe 1c be 82 68 c6 bb 91 87 a5 3e 2d 0f 00 3e
       -0.15331621 -0.006054939 0.3232999 0.12505789
000070 76 d5 46 be 4c 6c a6 be ac 86 68 3d 87 e5 1b 3e
       -0.19417366 -0.325045 0.056769058 0.15224276

conv_layers.3.weight f4 [64, 32, 3]
000000 08 1d 5b 3f b4 27 24 be 25 99 12 3f 94 bb 0e 3e
       0.85591173 -0.1603077 0.5726493 0.13938743
000010 6d a5 6a bd dc bd c4 3e 39 23 2e 3d c4 f8 9e 3c
       -0.05728667 0.384261 0.04251406 0.01940573
000020 dd 8f c3 bc 8e 06 4f bd 18 87 01 3e 60 9a d1 3c
       -0.02387231 -0.05054336 0.1264919 0.025586307
000030 1a 46 59 be ed cb eb be 25 54 52 be 38 6a 0f c0
       -0.21218148 -0.4605402 -0.20539911 -2.240858
000040 d5 f7 2b 3e 15 ef 11 bd fb af ac bd ad 6d d0 3d
       0.16793759 -0.035628397 -0.08432003 0.10177169
000050 8b de 78 bb 92 37 83 40 df c3 ac 40 fe 10 30 40
       -0.0037974443 4.1005335 5.39891 2.7510371
000060 1e a1 31 bf 4d 8e d4 3e 68 dc 61 bd cd e7 c7 be
       -0.6938647 0.41514817 -0.055141836 -0.39044037
000070 2b a6 a2 3e 8d 25 25 bf f9 59 ac 3e fb 21 82 be
       0.317674 -0.6451042 0.33662394 -0.2541655
000080 76 a4 36 3f 13 eb 4a 3e 8b 98 5a 3f 52 95 63 3f
       0.713447 0.19816236 0.8538901 0.8889972
000090 f5 54 b0 40 20 83 1a 40 01 a0 72 40 88 95 06 3f
       5.5103707 2.4142532 3.7910159 0.52571917
0000a0 9b 00 dd 3e 78 a7 15 bf 86 6f cb bf 2a 1e 7b be
       0.43164524 -0.5845866 -1.5893409 -0.24523225
0000b0 5e bf 90 bf 5c 9d 97 3d 47 70 2e 3d 9f 5f 9f 3c
       -1.1308401 0.07403061 0.042587545 0.019454775
0000c0 a8 78 9f 3d 68 8c a6 3d 61 c5 a4 3e 76 26 c1 bf
       0.07786685 0.08132249 0.32181838 -1.5089862
0000d0 94 45 f3 bc fd d0 5e bf 00 16 89 3e 39 14 b0 3a
       -0.029696263 -0.8703764 0.26774597 0.0013433761
0000e0 d4 53 56 3e b1 e6 28 3e 3e fd db bc 8e f8 aa bd
       0.20930415 0.16494252 -0.026854154 -0.08348189
0000f0 be 62 03 3f 81 e9 5e 3f 83 ac 50 3f 07 dc 77 3d
       0.51322544 0.8707505 0.8151323 0.06051257
000100 fc 41 65 3f 44 e2 65 3f 8d ee 7f bf 41 59 61 bf
       0.8955381 0.8979838 -0.99973375 -0.88026816
000110 20 79 63 be d6 05 9d bd 8f d1 87 3e bc 95 b4 be
       -0.22214174 -0.07667129 0.26527068 -0.35270488
000120 59 21 2c be 8f ab 45 3f 57 f2 20 bf 46 cd 62 3e
       -0.16809596 0.772149 -0.6286978 0.22148618
000130 f1 cb 99 be 4f de d3 3d 31 88 09 bd 1a 14 e9 3d
       -0.30038407 0.103451364 -0.033577148 0.11380787
000140 c5 3f a3 bd 95 a0 52 3e 4f b2 fe bb 3c 66 23 3d
       -0.079711474 0.2056907 -0.007772721 0.03989242
000150 0f 71 b9 bd 20 d3 8f 3c b3 7d 9a 3e 73 e0 61 bf
       -0.09054767 0.017556727 0.30174026 -0.8823311
000160 74 a8 20 bf 9e 9c 18 3f 03 8a 2d 3e b1 7d 94 3e
       -0.6275704 0.5961398 0.16947179 0.29002145
000170 5e 46 1d bd 77 fc ac 3c 57 cd 47 3e ce 5b 15 3d
       -0.038397186 0.021116478 0.19511925 0.036464505
000180 4d 0c d0 3d 8d 03 d5 3d 12 c0 3c 3e d4 31 3d 3e
       0.10158596 0.10401068 0.18432644 0.18476039
000190 df ae 6b 3d 03 70 b6 3d 0b 75 09 3e 86 03 85 3e
       0.057539817 0.08908083 0.13423555 0.2597925
0001a0 22 52 59 3e fe 1f 98 3e d3 af 92 3e 1b 05 1d 3e
       0.21222737 0.29711908 0.28649768 0.15333979
0001b0 78 06 0b bf 8d 4a 0d bf db 33 52 bf 92 d1 1f bf
       -0.54306746 -0.5519188 -0.82110375 -0.62429154
0001c0 21 b7 00 bf 8a b3 ad be c2 2b 27 3e f4 d0 59 bb
       -0.5027943 -0.3392604 0.16325286 -0.0033236118
0001d0 0f 91 f6 3d 72 cd 16 40 b4 80 18 40 31 8b 27 40
       0.120393865 2.3562894 2.3828554 2.6178706
0001e0 6a ab 17 bf 5d 91 0d bf 05 78 17 bf 9f 40 a2 bd
       -0.5924593 -0.5529993 -0.5916751 -0.07922482
0001f0 e5 06 2e bd b3 6d a3 3d cb 88 18 bd 40 0a 3a 3e
       -0.042487044 0.07979908 -0.03723983 0.18167973
000200 4e 83 81 3e 30 36 6e 3f 68 96 68 3f 47 e5 7f 3f
       0.2529549 0.93051434 0.908545 0.99959224
000210 29 ff 77 40 88 f5 68 40 81 40 35 40 28 8f ec 3c
       3.8749487 3.639986 2.832062 0.028876856
000220 7f 98 ae bd cb b8 e2 bd d5 01 98 be 22 ca 72 be
       -0.0852518 -0.11070403 -0.29688898 -0.2370992
000230 3d 8e 87 be f1 c6 68 3e 8c 08 f1 3d 26 75 65 3e
       -0.26475707 0.2273214 0.11769208 0.2240797
000240 b7 5c 11 3c 93 3f de 3d 92 55 00 3d c6 a9 0b bf
       0.008872203 0.108519696 0.031331606 -0.5455593
000250 09 00 16 bf e1 b3 03 bf 2c 0e a7 3e 64 05 31 3e
       -0.58593804 -0.5144635 0.32628 0.17287213
000260 0c ac 7c 3e e3 92 e4 3d 18 7d dd 3d 89 0c 30 3e
       0.24675006 0.11160829 0.10814875 0.17192282
000270 10 8f 41 3f b6 24 2e 3f 32 fb 5f 3f 19 61 76 3f
       0.7560892 0.68024766 0.8749267 0.9624191
000280 bc c9 5b 3f b4 fe 5b 3f 96 c8 6f be 6c ae e0 bd
       0.858547 0.8593552 -0.23416361 -0.10970768
000290 19 11 b1 be d3 22 93 3d 30 5b 6e 3d fd 26 61 3e
       -0.34583357 0.071843766 0.058192432 0.21987529
0002a0 3f c0 31 bf 36 15 b8 be cd 3d 81 be c5 a1 dc bd
       -0.6943397 -0.35953683 -0.25242463 -0.107730426
0002b0 d8 d1 08 be e8 66 1d be 04 91 53 3e de cb 3e 3d
       -0.13361299 -0.15371287 0.20660788 0.04658114
0002c0 2e 6d e2 3d 63 fd b0 3d 51 40 2c 3d a7 22 42 3e
       0.110559806 0.0864208 0.042053524 0.18958531
0002d0 47 11 88 be 3f b5 a5 be 36 08 e5 be 89 de 5d be
       -0.26575682 -0.32364842 -0.44732827 -0.21666922
0002e0 a1 41 7a be ae f0 85 be 0c 2d bd 3d c4 18 1e 3e
       -0.24439098 -0.26160187 0.09237108 0.15439135
0002f0 ce 77 f7 3d 5f 82 47 3d 80 f7 2a 3e 5d 88 4e 3d
       0.12083398 0.048708316 0.16695976 0.050423015
000300 62 d1 fd bf b9 93 09 c0 b8 c7 ca bf e3 db 24 3d
       -1.9829524 -2.1496413 -1.5842199 0.040248763
000310 4c e7 5f 3d 3a 2d 04 3e 96 76 9a 3c 9d 46 cb bc
       0.05466394 0.12907878 0.018855374 -0.024813944
000320 8a 2e f5 bd b0 1c ed ba 2d ae 6a bd 1c ce 17 be
       -0.11971767 -0.0018090215 -0.057295013 -0.14824718
000330 08 3d 47 3f f9 00 60 3f 30 ad 82 3f 4d 21 2d 3f
       0.778275 0.87501484 1.0209103 0.6762894
000340 20 5d 2b 3f 7d 2c 3e 3f 37 0b 45 bd 14 44 35 bd
       0.6693897 0.74286634 -0.0481064 -0.044254377
000350 5a e8 91 3d b1 a6 d1 3e e7 68 23 3e 48 51 50 bf
       0.07124396 0.40947488 0.15957986 -0.81374025
000360 04 b9 f4 3e e5 21 c8 3e 65 82 12 3f f0 14 f0 3c
       0.47797406 0.3908836 0.57230216 0.029306859
000370 0c 3c 93 3d c4 fd 0d 3e 1a e2 04 c0 85 6a a2 bf
       0.071891874 0.13866335 -2.0763001 -1.2688757
000380 f8 94 17 bf 84 86 a6 bf 98 88 c6 bf 06 68 c0 bf
       -0.59211683 -1.3009801 -1.5510435 -1.5031745
000390 13 68 28 c0 96 ce 28 c0 0a c3 22 c0 e8 c6 7d 3e
       -2.6313522 -2.637609 -2.5431542 0.24782908
0003a0 dc d8 bc 3e d1 8d 87 3e fb a7 2c 3f 8d a5 38 3f
       0.368842 0.26475385 0.6744382 0.7212761
0003b0 36 dc 38 3f 69 20 ac bc 2f e6 f2 bb 41 ec 95 bd
       0.72211015 -0.021011548 -0.007412694 -0.073204525
0003c0 09 49 18 3e 1c 45 78 3e f6 11 87 3e eb 82 74 3f
       0.1487161 0.24245113 0.2638089 0.95512265
0003d0 6d 7f 7c 3f c0 45 71 3f 91 5f 42 3b ff 41 38 bd
       0.98631936 0.94247055 0.0029659013 -0.044984814
0003e0 31 8f 40 3d b7 6e 20 bd 86 22 32 3d 57 6e 86 bd
       0.047011558 -0.039168086 0.043489955 -0.065640144
0003f0 2d 19 a6 bf d9 83 94 bf ef a3 55 bf b3 cc 99 bf
       -1.2976433 -1.1602737 -0.8345327 -1.2015594

conv_layers.3.bias f4 [64]
000000 56 11 c7 bc b1 42 9a 3e 5d db 71 bd 36 db 2b 3e
       -0.024300259 0.30129007 -0.05904709 0.16782841
000010 58 92 c6 bd 15 90 88 3e e8 01 c0 bd 3b 86 28 3e
       -0.096958816 0.26672426 -0.093753636 0.16457455
000020 87 30 85 3e cf be 16 3e f2 9c f8 bd a8 29 e3 3d
       0.26013586 0.14721225 -0.1213931 0.1109193
000030 af 28 80 3e 75 70 75 3e 2d b1 a5 bd 78 1d f7 bd
       0.2503104 0.2396868 -0.08090434 -0.120661676
000040 2f c8 8e 3e 2c 05 eb 3c f1 49 3d 3c 06 73 f7 bd
       0.27887103 0.02868899 0.011553274 -0.12082486
000050 2e a7 97 3c 6e 2e a1 3e 1b b0 02 be bc 76 0a 3c
       0.018512335 0.31480736 -0.12762491 0.00845116
000060 fc 8c 68 3d 42 85 1f bd ec 85 42 bc 73 ee 08 3d
       0.05677508 -0.038945444 -0.01187275 0.033430528
000070 3d d2 25 be a3 83 81 3e 29 d7 2b bc e9 2a af 3d
       -0.16193481 0.25295743 -0.01048831 0.08553106
000080 15 c8 2c be 84 6a 2d bd 44 12 cc bd 50 18 96 3e
       -0.168732 -0.04233791 -0.099644214 0.29315424
000090 d6 93 85 bc 50 40 93 bd 24 70 5e bd d4 3e 7b bd
       -0.016305845 -0.07190001 -0.054306164 -0.061339214
0000a0 b3 be 08 be 3c 1e 8a 3e 79 9a 20 be e6 4a 0f be
       -0.13353996 0.26976192 -0.15683927 -0.13993415
0000b0 78 f5 9c 3b b6 1b 29 be cb ee 27 bd 18 74 16 bd
       0.0047900043 -0.16514477 -0.040999215 -0.03673181
0000c0 4f 41 bd bd f1 3e 74 bd 08 fe 9c 3e e3 60 f9 bd
       -0.09240972 -0.059630338 0.3066256 -0.12176683
0000d0 29 d7 0d be 71 cb 19 be 51 71 1f 3e 61 32 b0 bd
       -0.13851608 -0.15019013 0.1557057 -0.08603359
0000e0 b7 62 9a bd b8 0d 24 be 76 ae 91 3e 35 4a 8a bd
       -0.075383596 -0.16020858 0.28453416 -0.06752435
0000f0 18 b6 42 3e 8e 29 93 bd a9 89 1e bc d1 b1 8a 3e
       0.19014776 -0.0718566 -0.009676375 0.27088788

classifier.weight f4 [1, 64]
000000 d2 d9 d6 bf bd aa ed be f3 26 2a 3f fd 30 dc be
       -1.6785223 -0.46419325 0.6646568 -0.43006125
000010 eb 92 10 c0 4e 6e 05 bf be ee d4 3d 18 ed 03 bf
       -2.2589672 -0.52121437 0.10397099 -0.5153365
000020 a2 57 cb be d5 37 24 bf a2 40 39 c0 35 af 5c c0
       -0.39715296 -0.6414769 -2.8945699 -3.4481938
000030 05 e1 dd be 23 9a e0 be 25 17 23 3f 67 30 21 3f
       -0.4333574 -0.43867597 0.6370719 0.6296448
000040 cf a3 f8 be 4b d4 30 3f 6d 71 2d c0 7e f6 32 3f
       -0.48562476 0.69073933 -2.710048 0.6990737
000050 a4 69 05 3f ce 0c e2 be d8 28 1b 3f 3c e9 2f 3f
       0.5211432 -0.44150394 0.606092 0.6871526
000060 10 95 44 bf ee e3 29 3f f1 62 00 c0 60 98 8f c0
       -0.7678995 0.6636342 -2.006039 -4.4873505
000070 af 8a 1b 3f 98 41 ee be a7 82 22 3f 22 f2 df be
       0.6075849 -0.4653442 0.6348061 -0.4373942
000080 2d c0 1a 3f 92 84 04 c0 09 14 03 be 3c ef 15 bf
       0.60449487 -2.0705914 -0.12800612 -0.5856817
000090 93 73 3e c0 f6 e7 69 3d f2 44 08 3f 0d 28 40 3f
       -2.975804 0.05710598 0.532302 0.7506111
0000a0 3c 22 39 c0 3f f5 0a bf a2 63 1f 3f 77 da 20 3f
       -2.8927145 -0.54280466 0.622614 0.6283335
0000b0 2b bf 2d 3f cd 35 05 3f c1 39 07 c0 fc 25 35 c0
       0.67869824 0.5203522 -2.1129 -2.8304434
0000c0 5c 14 76 3c 00 ee 12 bd bd fc dc be d9 05 3b 3d
       0.0150195025 -0.035871506 -0.43161574 0.045659874
0000d0 0c dd 28 3f 41 16 1b 3f 1d 7b ff be e9 7c 39 bd
       0.6596229 0.6058083 -0.49898615 -0.04528514
0000e0 8d 84 2b 3f da a1 11 3f 19 6a 16 bf cc e6 a2 3d
       0.6699913 0.5688759 -0.5875564 0.07954177
0000f0 67 76 e2 be 8e cc 55 3c 73 2b c8 3c ac 3a e8 be
       -0.4423096 0.013049258 0.02443478 -0.45357263
